…
[32m2021-06-24T01:29:13 | mmf.utils.checkpoint: [0mPretrained model loaded
[32m2021-06-24T01:29:13 | mmf.utils.checkpoint: [0mCheckpoint loaded.
[32m2021-06-24T01:29:13 | mmf.utils.checkpoint: [0mCurrent num updates: 0
[32m2021-06-24T01:29:13 | mmf.utils.checkpoint: [0mCurrent iteration: 0
[32m2021-06-24T01:29:13 | mmf.utils.checkpoint: [0mCurrent epoch: 0
[32m2021-06-24T01:29:13 | mmf.trainers.mmf_trainer: [0m===== Model =====
[32m2021-06-24T01:29:13 | mmf.trainers.mmf_trainer: [0mViLBERT(
  (model): ViLBERTForClassification(
    (bert): ViLBERTBase(
      (embeddings): BertEmbeddings(
        (word_embeddings): Embedding(30522, 768, padding_idx=0)
        (position_embeddings): Embedding(512, 768)
        (token_type_embeddings): Embedding(2, 768)
        (LayerNorm): LayerNorm((768,), eps=1e-12, elementwise_affine=True)
        (dropout): Dropout(p=0.1, inplace=False)
      )
      (v_embeddings): BertImageFeatureEmbeddings(
        (image_embeddings): Linear(in_features=2048, out_features=1024, bias=True)
        (image_location_embeddings): Linear(in_features=5, out_features=1024, bias=True)
        (LayerNorm): LayerNorm((1024,), eps=1e-12, elementwise_affine=True)
        (dropout): Dropout(p=0.1, inplace=False)
      )
      (encoder): BertEncoder(
        (layer): ModuleList(
          (0): BertLayer(
            (attention): BertAttention(
              (self): BertSelfAttention(
                (query): Linear(in_features=768, out_features=768, bias=True)
                (key): Linear(in_features=768, out_features=768, bias=True)
                (value): Linear(in_features=768, out_features=768, bias=True)
                (dropout): Dropout(p=0.1, inplace=False)
              )
              (output): BertSelfOutput(
                (dense): Linear(in_features=768, out_features=768, bias=True)
                (LayerNorm): LayerNorm((768,), eps=1e-12, elementwise_affine=True)
                (dropout): Dropout(p=0.1, inplace=False)
              )
            )
            (intermediate): BertIntermediate(
              (dense): Linear(in_features=768, out_features=3072, bias=True)
            )
            (output): BertOutput(
              (dense): Linear(in_features=3072, out_features=768, bias=True)
              (LayerNorm): LayerNorm((768,), eps=1e-12, elementwise_affine=True)
              (dropout): Dropout(p=0.1, inplace=False)
            )
          )
          (1): BertLayer(
            (attention): BertAttention(
              (self): BertSelfAttention(
                (query): Linear(in_features=768, out_features=768, bias=True)
                (key): Linear(in_features=768, out_features=768, bias=True)
                (value): Linear(in_features=768, out_features=768, bias=True)
                (dropout): Dropout(p=0.1, inplace=False)
              )
              (output): BertSelfOutput(
                (dense): Linear(in_features=768, out_features=768, bias=True)
                (LayerNorm): LayerNorm((768,), eps=1e-12, elementwise_affine=True)
                (dropout): Dropout(p=0.1, inplace=False)
              )
            )
            (intermediate): BertIntermediate(
              (dense): Linear(in_features=768, out_features=3072, bias=True)
            )
            (output): BertOutput(
              (dense): Linear(in_features=3072, out_features=768, bias=True)
              (LayerNorm): LayerNorm((768,), eps=1e-12, elementwise_affine=True)
              (dropout): Dropout(p=0.1, inplace=False)
            )
          )
          (2): BertLayer(
            (attention): BertAttention(
              (self): BertSelfAttention(
                (query): Linear(in_features=768, out_features=768, bias=True)
                (key): Linear(in_features=768, out_features=768, bias=True)
                (value): Linear(in_features=768, out_features=768, bias=True)
                (dropout): Dropout(p=0.1, inplace=False)
              )
              (output): BertSelfOutput(
                (dense): Linear(in_features=768, out_features=768, bias=True)
                (LayerNorm): LayerNorm((768,), eps=1e-12, elementwise_affine=True)
                (dropout): Dropout(p=0.1, inplace=False)
              )
            )
            (intermediate): BertIntermediate(
              (dense): Linear(in_features=768, out_features=3072, bias=True)
            )
            (output): BertOutput(
              (dense): Linear(in_features=3072, out_features=768, bias=True)
              (LayerNorm): LayerNorm((768,), eps=1e-12, elementwise_affine=True)
              (dropout): Dropout(p=0.1, inplace=False)
            )
          )
          (3): BertLayer(
            (attention): BertAttention(
              (self): BertSelfAttention(
                (query): Linear(in_features=768, out_features=768, bias=True)
                (key): Linear(in_features=768, out_features=768, bias=True)
                (value): Linear(in_features=768, out_features=768, bias=True)
                (dropout): Dropout(p=0.1, inplace=False)
              )
              (output): BertSelfOutput(
                (dense): Linear(in_features=768, out_features=768, bias=True)
                (LayerNorm): LayerNorm((768,), eps=1e-12, elementwise_affine=True)
                (dropout): Dropout(p=0.1, inplace=False)
              )
            )
            (intermediate): BertIntermediate(
              (dense): Linear(in_features=768, out_features=3072, bias=True)
            )
            (output): BertOutput(
              (dense): Linear(in_features=3072, out_features=768, bias=True)
              (LayerNorm): LayerNorm((768,), eps=1e-12, elementwise_affine=True)
              (dropout): Dropout(p=0.1, inplace=False)
            )
          )
          (4): BertLayer(
            (attention): BertAttention(
              (self): BertSelfAttention(
                (query): Linear(in_features=768, out_features=768, bias=True)
                (key): Linear(in_features=768, out_features=768, bias=True)
                (value): Linear(in_features=768, out_features=768, bias=True)
                (dropout): Dropout(p=0.1, inplace=False)
              )
              (output): BertSelfOutput(
                (dense): Linear(in_features=768, out_features=768, bias=True)
                (LayerNorm): LayerNorm((768,), eps=1e-12, elementwise_affine=True)
                (dropout): Dropout(p=0.1, inplace=False)
              )
            )
            (intermediate): BertIntermediate(
              (dense): Linear(in_features=768, out_features=3072, bias=True)
            )
            (output): BertOutput(
              (dense): Linear(in_features=3072, out_features=768, bias=True)
              (LayerNorm): LayerNorm((768,), eps=1e-12, elementwise_affine=True)
              (dropout): Dropout(p=0.1, inplace=False)
            )
          )
          (5): BertLayer(
            (attention): BertAttention(
              (self): BertSelfAttention(
                (query): Linear(in_features=768, out_features=768, bias=True)
                (key): Linear(in_features=768, out_features=768, bias=True)
                (value): Linear(in_features=768, out_features=768, bias=True)
                (dropout): Dropout(p=0.1, inplace=False)
              )
              (output): BertSelfOutput(
                (dense): Linear(in_features=768, out_features=768, bias=True)
                (LayerNorm): LayerNorm((768,), eps=1e-12, elementwise_affine=True)
                (dropout): Dropout(p=0.1, inplace=False)
              )
            )
            (intermediate): BertIntermediate(
              (dense): Linear(in_features=768, out_features=3072, bias=True)
            )
            (output): BertOutput(
              (dense): Linear(in_features=3072, out_features=768, bias=True)
              (LayerNorm): LayerNorm((768,), eps=1e-12, elementwise_affine=True)
              (dropout): Dropout(p=0.1, inplace=False)
            )
          )
          (6): BertLayer(
            (attention): BertAttention(
              (self): BertSelfAttention(
                (query): Linear(in_features=768, out_features=768, bias=True)
                (key): Linear(in_features=768, out_features=768, bias=True)
                (value): Linear(in_features=768, out_features=768, bias=True)
                (dropout): Dropout(p=0.1, inplace=False)
              )
              (output): BertSelfOutput(
                (dense): Linear(in_features=768, out_features=768, bias=True)
                (LayerNorm): LayerNorm((768,), eps=1e-12, elementwise_affine=True)
                (dropout): Dropout(p=0.1, inplace=False)
              )
            )
            (intermediate): BertIntermediate(
              (dense): Linear(in_features=768, out_features=3072, bias=True)
            )
            (output): BertOutput(
              (dense): Linear(in_features=3072, out_features=768, bias=True)
              (LayerNorm): LayerNorm((768,), eps=1e-12, elementwise_affine=True)
              (dropout): Dropout(p=0.1, inplace=False)
            )
          )
          (7): BertLayer(
            (attention): BertAttention(
              (self): BertSelfAttention(
                (query): Linear(in_features=768, out_features=768, bias=True)
                (key): Linear(in_features=768, out_features=768, bias=True)
                (value): Linear(in_features=768, out_features=768, bias=True)
                (dropout): Dropout(p=0.1, inplace=False)
              )
              (output): BertSelfOutput(
                (dense): Linear(in_features=768, out_features=768, bias=True)
                (LayerNorm): LayerNorm((768,), eps=1e-12, elementwise_affine=True)
                (dropout): Dropout(p=0.1, inplace=False)
              )
            )
            (intermediate): BertIntermediate(
              (dense): Linear(in_features=768, out_features=3072, bias=True)
            )
            (output): BertOutput(
              (dense): Linear(in_features=3072, out_features=768, bias=True)
              (LayerNorm): LayerNorm((768,), eps=1e-12, elementwise_affine=True)
              (dropout): Dropout(p=0.1, inplace=False)
            )
          )
          (8): BertLayer(
            (attention): BertAttention(
              (self): BertSelfAttention(
                (query): Linear(in_features=768, out_features=768, bias=True)
                (key): Linear(in_features=768, out_features=768, bias=True)
                (value): Linear(in_features=768, out_features=768, bias=True)
                (dropout): Dropout(p=0.1, inplace=False)
              )
              (output): BertSelfOutput(
                (dense): Linear(in_features=768, out_features=768, bias=True)
                (LayerNorm): LayerNorm((768,), eps=1e-12, elementwise_affine=True)
                (dropout): Dropout(p=0.1, inplace=False)
              )
            )
            (intermediate): BertIntermediate(
              (dense): Linear(in_features=768, out_features=3072, bias=True)
            )
            (output): BertOutput(
              (dense): Linear(in_features=3072, out_features=768, bias=True)
              (LayerNorm): LayerNorm((768,), eps=1e-12, elementwise_affine=True)
              (dropout): Dropout(p=0.1, inplace=False)
            )
          )
          (9): BertLayer(
            (attention): BertAttention(
              (self): BertSelfAttention(
                (query): Linear(in_features=768, out_features=768, bias=True)
                (key): Linear(in_features=768, out_features=768, bias=True)
                (value): Linear(in_features=768, out_features=768, bias=True)
                (dropout): Dropout(p=0.1, inplace=False)
              )
              (output): BertSelfOutput(
                (dense): Linear(in_features=768, out_features=768, bias=True)
                (LayerNorm): LayerNorm((768,), eps=1e-12, elementwise_affine=True)
                (dropout): Dropout(p=0.1, inplace=False)
              )
            )
            (intermediate): BertIntermediate(
              (dense): Linear(in_features=768, out_features=3072, bias=True)
            )
            (output): BertOutput(
              (dense): Linear(in_features=3072, out_features=768, bias=True)
              (LayerNorm): LayerNorm((768,), eps=1e-12, elementwise_affine=True)
              (dropout): Dropout(p=0.1, inplace=False)
            )
          )
          (10): BertLayer(
            (attention): BertAttention(
              (self): BertSelfAttention(
                (query): Linear(in_features=768, out_features=768, bias=True)
                (key): Linear(in_features=768, out_features=768, bias=True)
                (value): Linear(in_features=768, out_features=768, bias=True)
                (dropout): Dropout(p=0.1, inplace=False)
              )
              (output): BertSelfOutput(
                (dense): Linear(in_features=768, out_features=768, bias=True)
                (LayerNorm): LayerNorm((768,), eps=1e-12, elementwise_affine=True)
                (dropout): Dropout(p=0.1, inplace=False)
              )
            )
            (intermediate): BertIntermediate(
              (dense): Linear(in_features=768, out_features=3072, bias=True)
            )
            (output): BertOutput(
              (dense): Linear(in_features=3072, out_features=768, bias=True)
              (LayerNorm): LayerNorm((768,), eps=1e-12, elementwise_affine=True)
              (dropout): Dropout(p=0.1, inplace=False)
            )
          )
          (11): BertLayer(
            (attention): BertAttention(
              (self): BertSelfAttention(
                (query): Linear(in_features=768, out_features=768, bias=True)
                (key): Linear(in_features=768, out_features=768, bias=True)
                (value): Linear(in_features=768, out_features=768, bias=True)
                (dropout): Dropout(p=0.1, inplace=False)
              )
              (output): BertSelfOutput(
                (dense): Linear(in_features=768, out_features=768, bias=True)
                (LayerNorm): LayerNorm((768,), eps=1e-12, elementwise_affine=True)
                (dropout): Dropout(p=0.1, inplace=False)
              )
            )
            (intermediate): BertIntermediate(
              (dense): Linear(in_features=768, out_features=3072, bias=True)
            )
            (output): BertOutput(
              (dense): Linear(in_features=3072, out_features=768, bias=True)
              (LayerNorm): LayerNorm((768,), eps=1e-12, elementwise_affine=True)
              (dropout): Dropout(p=0.1, inplace=False)
            )
          )
        )
        (v_layer): ModuleList(
          (0): BertImageLayer(
            (attention): BertImageAttention(
              (self): BertImageSelfAttention(
                (query): Linear(in_features=1024, out_features=1024, bias=True)
                (key): Linear(in_features=1024, out_features=1024, bias=True)
                (value): Linear(in_features=1024, out_features=1024, bias=True)
                (dropout): Dropout(p=0.1, inplace=False)
              )
              (output): BertImageSelfOutput(
                (dense): Linear(in_features=1024, out_features=1024, bias=True)
                (LayerNorm): LayerNorm((1024,), eps=1e-12, elementwise_affine=True)
                (dropout): Dropout(p=0.1, inplace=False)
              )
            )
            (intermediate): BertImageIntermediate(
              (dense): Linear(in_features=1024, out_features=1024, bias=True)
            )
            (output): BertImageOutput(
              (dense): Linear(in_features=1024, out_features=1024, bias=True)
              (LayerNorm): LayerNorm((1024,), eps=1e-12, elementwise_affine=True)
              (dropout): Dropout(p=0.1, inplace=False)
            )
          )
          (1): BertImageLayer(
            (attention): BertImageAttention(
              (self): BertImageSelfAttention(
                (query): Linear(in_features=1024, out_features=1024, bias=True)
                (key): Linear(in_features=1024, out_features=1024, bias=True)
                (value): Linear(in_features=1024, out_features=1024, bias=True)
                (dropout): Dropout(p=0.1, inplace=False)
              )
              (output): BertImageSelfOutput(
                (dense): Linear(in_features=1024, out_features=1024, bias=True)
                (LayerNorm): LayerNorm((1024,), eps=1e-12, elementwise_affine=True)
                (dropout): Dropout(p=0.1, inplace=False)
              )
            )
            (intermediate): BertImageIntermediate(
              (dense): Linear(in_features=1024, out_features=1024, bias=True)
            )
            (output): BertImageOutput(
              (dense): Linear(in_features=1024, out_features=1024, bias=True)
              (LayerNorm): LayerNorm((1024,), eps=1e-12, elementwise_affine=True)
              (dropout): Dropout(p=0.1, inplace=False)
            )
          )
          (2): BertImageLayer(
            (attention): BertImageAttention(
              (self): BertImageSelfAttention(
                (query): Linear(in_features=1024, out_features=1024, bias=True)
                (key): Linear(in_features=1024, out_features=1024, bias=True)
                (value): Linear(in_features=1024, out_features=1024, bias=True)
                (dropout): Dropout(p=0.1, inplace=False)
              )
              (output): BertImageSelfOutput(
                (dense): Linear(in_features=1024, out_features=1024, bias=True)
                (LayerNorm): LayerNorm((1024,), eps=1e-12, elementwise_affine=True)
                (dropout): Dropout(p=0.1, inplace=False)
              )
            )
            (intermediate): BertImageIntermediate(
              (dense): Linear(in_features=1024, out_features=1024, bias=True)
            )
            (output): BertImageOutput(
              (dense): Linear(in_features=1024, out_features=1024, bias=True)
              (LayerNorm): LayerNorm((1024,), eps=1e-12, elementwise_affine=True)
              (dropout): Dropout(p=0.1, inplace=False)
            )
          )
          (3): BertImageLayer(
            (attention): BertImageAttention(
              (self): BertImageSelfAttention(
                (query): Linear(in_features=1024, out_features=1024, bias=True)
                (key): Linear(in_features=1024, out_features=1024, bias=True)
                (value): Linear(in_features=1024, out_features=1024, bias=True)
                (dropout): Dropout(p=0.1, inplace=False)
              )
              (output): BertImageSelfOutput(
                (dense): Linear(in_features=1024, out_features=1024, bias=True)
                (LayerNorm): LayerNorm((1024,), eps=1e-12, elementwise_affine=True)
                (dropout): Dropout(p=0.1, inplace=False)
              )
            )
            (intermediate): BertImageIntermediate(
              (dense): Linear(in_features=1024, out_features=1024, bias=True)
            )
            (output): BertImageOutput(
              (dense): Linear(in_features=1024, out_features=1024, bias=True)
              (LayerNorm): LayerNorm((1024,), eps=1e-12, elementwise_affine=True)
              (dropout): Dropout(p=0.1, inplace=False)
            )
          )
          (4): BertImageLayer(
            (attention): BertImageAttention(
              (self): BertImageSelfAttention(
                (query): Linear(in_features=1024, out_features=1024, bias=True)
                (key): Linear(in_features=1024, out_features=1024, bias=True)
                (value): Linear(in_features=1024, out_features=1024, bias=True)
                (dropout): Dropout(p=0.1, inplace=False)
              )
              (output): BertImageSelfOutput(
                (dense): Linear(in_features=1024, out_features=1024, bias=True)
                (LayerNorm): LayerNorm((1024,), eps=1e-12, elementwise_affine=True)
                (dropout): Dropout(p=0.1, inplace=False)
              )
            )
            (intermediate): BertImageIntermediate(
              (dense): Linear(in_features=1024, out_features=1024, bias=True)
            )
            (output): BertImageOutput(
              (dense): Linear(in_features=1024, out_features=1024, bias=True)
              (LayerNorm): LayerNorm((1024,), eps=1e-12, elementwise_affine=True)
              (dropout): Dropout(p=0.1, inplace=False)
            )
          )
          (5): BertImageLayer(
            (attention): BertImageAttention(
              (self): BertImageSelfAttention(
                (query): Linear(in_features=1024, out_features=1024, bias=True)
                (key): Linear(in_features=1024, out_features=1024, bias=True)
                (value): Linear(in_features=1024, out_features=1024, bias=True)
                (dropout): Dropout(p=0.1, inplace=False)
              )
              (output): BertImageSelfOutput(
                (dense): Linear(in_features=1024, out_features=1024, bias=True)
                (LayerNorm): LayerNorm((1024,), eps=1e-12, elementwise_affine=True)
                (dropout): Dropout(p=0.1, inplace=False)
              )
            )
            (intermediate): BertImageIntermediate(
              (dense): Linear(in_features=1024, out_features=1024, bias=True)
            )
            (output): BertImageOutput(
              (dense): Linear(in_features=1024, out_features=1024, bias=True)
              (LayerNorm): LayerNorm((1024,), eps=1e-12, elementwise_affine=True)
              (dropout): Dropout(p=0.1, inplace=False)
            )
          )
        )
        (c_layer): ModuleList(
          (0): BertConnectionLayer(
            (biattention): BertBiAttention(
              (query1): Linear(in_features=1024, out_features=1024, bias=True)
              (key1): Linear(in_features=1024, out_features=1024, bias=True)
              (value1): Linear(in_features=1024, out_features=1024, bias=True)
              (dropout1): Dropout(p=0.1, inplace=False)
              (query2): Linear(in_features=768, out_features=1024, bias=True)
              (key2): Linear(in_features=768, out_features=1024, bias=True)
              (value2): Linear(in_features=768, out_features=1024, bias=True)
              (dropout2): Dropout(p=0.1, inplace=False)
            )
            (biOutput): BertBiOutput(
              (dense1): Linear(in_features=1024, out_features=1024, bias=True)
              (LayerNorm1): LayerNorm((1024,), eps=1e-12, elementwise_affine=True)
              (dropout1): Dropout(p=0.1, inplace=False)
              (q_dense1): Linear(in_features=1024, out_features=1024, bias=True)
              (q_dropout1): Dropout(p=0.1, inplace=False)
              (dense2): Linear(in_features=1024, out_features=768, bias=True)
              (LayerNorm2): LayerNorm((768,), eps=1e-12, elementwise_affine=True)
              (dropout2): Dropout(p=0.1, inplace=False)
              (q_dense2): Linear(in_features=1024, out_features=768, bias=True)
              (q_dropout2): Dropout(p=0.1, inplace=False)
            )
            (v_intermediate): BertImageIntermediate(
              (dense): Linear(in_features=1024, out_features=1024, bias=True)
            )
            (v_output): BertImageOutput(
              (dense): Linear(in_features=1024, out_features=1024, bias=True)
              (LayerNorm): LayerNorm((1024,), eps=1e-12, elementwise_affine=True)
              (dropout): Dropout(p=0.1, inplace=False)
            )
            (t_intermediate): BertIntermediate(
              (dense): Linear(in_features=768, out_features=3072, bias=True)
            )
            (t_output): BertOutput(
              (dense): Linear(in_features=3072, out_features=768, bias=True)
              (LayerNorm): LayerNorm((768,), eps=1e-12, elementwise_affine=True)
              (dropout): Dropout(p=0.1, inplace=False)
            )
          )
          (1): BertConnectionLayer(
            (biattention): BertBiAttention(
              (query1): Linear(in_features=1024, out_features=1024, bias=True)
              (key1): Linear(in_features=1024, out_features=1024, bias=True)
              (value1): Linear(in_features=1024, out_features=1024, bias=True)
              (dropout1): Dropout(p=0.1, inplace=False)
              (query2): Linear(in_features=768, out_features=1024, bias=True)
              (key2): Linear(in_features=768, out_features=1024, bias=True)
              (value2): Linear(in_features=768, out_features=1024, bias=True)
              (dropout2): Dropout(p=0.1, inplace=False)
            )
            (biOutput): BertBiOutput(
              (dense1): Linear(in_features=1024, out_features=1024, bias=True)
              (LayerNorm1): LayerNorm((1024,), eps=1e-12, elementwise_affine=True)
              (dropout1): Dropout(p=0.1, inplace=False)
              (q_dense1): Linear(in_features=1024, out_features=1024, bias=True)
              (q_dropout1): Dropout(p=0.1, inplace=False)
              (dense2): Linear(in_features=1024, out_features=768, bias=True)
              (LayerNorm2): LayerNorm((768,), eps=1e-12, elementwise_affine=True)
              (dropout2): Dropout(p=0.1, inplace=False)
              (q_dense2): Linear(in_features=1024, out_features=768, bias=True)
              (q_dropout2): Dropout(p=0.1, inplace=False)
            )
            (v_intermediate): BertImageIntermediate(
              (dense): Linear(in_features=1024, out_features=1024, bias=True)
            )
            (v_output): BertImageOutput(
              (dense): Linear(in_features=1024, out_features=1024, bias=True)
              (LayerNorm): LayerNorm((1024,), eps=1e-12, elementwise_affine=True)
              (dropout): Dropout(p=0.1, inplace=False)
            )
            (t_intermediate): BertIntermediate(
              (dense): Linear(in_features=768, out_features=3072, bias=True)
            )
            (t_output): BertOutput(
              (dense): Linear(in_features=3072, out_features=768, bias=True)
              (LayerNorm): LayerNorm((768,), eps=1e-12, elementwise_affine=True)
              (dropout): Dropout(p=0.1, inplace=False)
            )
          )
          (2): BertConnectionLayer(
            (biattention): BertBiAttention(
              (query1): Linear(in_features=1024, out_features=1024, bias=True)
              (key1): Linear(in_features=1024, out_features=1024, bias=True)
              (value1): Linear(in_features=1024, out_features=1024, bias=True)
              (dropout1): Dropout(p=0.1, inplace=False)
              (query2): Linear(in_features=768, out_features=1024, bias=True)
              (key2): Linear(in_features=768, out_features=1024, bias=True)
              (value2): Linear(in_features=768, out_features=1024, bias=True)
              (dropout2): Dropout(p=0.1, inplace=False)
            )
            (biOutput): BertBiOutput(
              (dense1): Linear(in_features=1024, out_features=1024, bias=True)
              (LayerNorm1): LayerNorm((1024,), eps=1e-12, elementwise_affine=True)
              (dropout1): Dropout(p=0.1, inplace=False)
              (q_dense1): Linear(in_features=1024, out_features=1024, bias=True)
              (q_dropout1): Dropout(p=0.1, inplace=False)
              (dense2): Linear(in_features=1024, out_features=768, bias=True)
              (LayerNorm2): LayerNorm((768,), eps=1e-12, elementwise_affine=True)
              (dropout2): Dropout(p=0.1, inplace=False)
              (q_dense2): Linear(in_features=1024, out_features=768, bias=True)
              (q_dropout2): Dropout(p=0.1, inplace=False)
            )
            (v_intermediate): BertImageIntermediate(
              (dense): Linear(in_features=1024, out_features=1024, bias=True)
            )
            (v_output): BertImageOutput(
              (dense): Linear(in_features=1024, out_features=1024, bias=True)
              (LayerNorm): LayerNorm((1024,), eps=1e-12, elementwise_affine=True)
              (dropout): Dropout(p=0.1, inplace=False)
            )
            (t_intermediate): BertIntermediate(
              (dense): Linear(in_features=768, out_features=3072, bias=True)
            )
            (t_output): BertOutput(
              (dense): Linear(in_features=3072, out_features=768, bias=True)
              (LayerNorm): LayerNorm((768,), eps=1e-12, elementwise_affine=True)
              (dropout): Dropout(p=0.1, inplace=False)
            )
          )
          (3): BertConnectionLayer(
            (biattention): BertBiAttention(
              (query1): Linear(in_features=1024, out_features=1024, bias=True)
              (key1): Linear(in_features=1024, out_features=1024, bias=True)
              (value1): Linear(in_features=1024, out_features=1024, bias=True)
              (dropout1): Dropout(p=0.1, inplace=False)
              (query2): Linear(in_features=768, out_features=1024, bias=True)
              (key2): Linear(in_features=768, out_features=1024, bias=True)
              (value2): Linear(in_features=768, out_features=1024, bias=True)
              (dropout2): Dropout(p=0.1, inplace=False)
            )
            (biOutput): BertBiOutput(
              (dense1): Linear(in_features=1024, out_features=1024, bias=True)
              (LayerNorm1): LayerNorm((1024,), eps=1e-12, elementwise_affine=True)
              (dropout1): Dropout(p=0.1, inplace=False)
              (q_dense1): Linear(in_features=1024, out_features=1024, bias=True)
              (q_dropout1): Dropout(p=0.1, inplace=False)
              (dense2): Linear(in_features=1024, out_features=768, bias=True)
              (LayerNorm2): LayerNorm((768,), eps=1e-12, elementwise_affine=True)
              (dropout2): Dropout(p=0.1, inplace=False)
              (q_dense2): Linear(in_features=1024, out_features=768, bias=True)
              (q_dropout2): Dropout(p=0.1, inplace=False)
            )
            (v_intermediate): BertImageIntermediate(
              (dense): Linear(in_features=1024, out_features=1024, bias=True)
            )
            (v_output): BertImageOutput(
              (dense): Linear(in_features=1024, out_features=1024, bias=True)
              (LayerNorm): LayerNorm((1024,), eps=1e-12, elementwise_affine=True)
              (dropout): Dropout(p=0.1, inplace=False)
            )
            (t_intermediate): BertIntermediate(
              (dense): Linear(in_features=768, out_features=3072, bias=True)
            )
            (t_output): BertOutput(
              (dense): Linear(in_features=3072, out_features=768, bias=True)
              (LayerNorm): LayerNorm((768,), eps=1e-12, elementwise_affine=True)
              (dropout): Dropout(p=0.1, inplace=False)
            )
          )
          (4): BertConnectionLayer(
            (biattention): BertBiAttention(
              (query1): Linear(in_features=1024, out_features=1024, bias=True)
              (key1): Linear(in_features=1024, out_features=1024, bias=True)
              (value1): Linear(in_features=1024, out_features=1024, bias=True)
              (dropout1): Dropout(p=0.1, inplace=False)
              (query2): Linear(in_features=768, out_features=1024, bias=True)
              (key2): Linear(in_features=768, out_features=1024, bias=True)
              (value2): Linear(in_features=768, out_features=1024, bias=True)
              (dropout2): Dropout(p=0.1, inplace=False)
            )
            (biOutput): BertBiOutput(
              (dense1): Linear(in_features=1024, out_features=1024, bias=True)
              (LayerNorm1): LayerNorm((1024,), eps=1e-12, elementwise_affine=True)
              (dropout1): Dropout(p=0.1, inplace=False)
              (q_dense1): Linear(in_features=1024, out_features=1024, bias=True)
              (q_dropout1): Dropout(p=0.1, inplace=False)
              (dense2): Linear(in_features=1024, out_features=768, bias=True)
              (LayerNorm2): LayerNorm((768,), eps=1e-12, elementwise_affine=True)
              (dropout2): Dropout(p=0.1, inplace=False)
              (q_dense2): Linear(in_features=1024, out_features=768, bias=True)
              (q_dropout2): Dropout(p=0.1, inplace=False)
            )
            (v_intermediate): BertImageIntermediate(
              (dense): Linear(in_features=1024, out_features=1024, bias=True)
            )
            (v_output): BertImageOutput(
              (dense): Linear(in_features=1024, out_features=1024, bias=True)
              (LayerNorm): LayerNorm((1024,), eps=1e-12, elementwise_affine=True)
              (dropout): Dropout(p=0.1, inplace=False)
            )
            (t_intermediate): BertIntermediate(
              (dense): Linear(in_features=768, out_features=3072, bias=True)
            )
            (t_output): BertOutput(
              (dense): Linear(in_features=3072, out_features=768, bias=True)
              (LayerNorm): LayerNorm((768,), eps=1e-12, elementwise_affine=True)
              (dropout): Dropout(p=0.1, inplace=False)
            )
          )
          (5): BertConnectionLayer(
            (biattention): BertBiAttention(
              (query1): Linear(in_features=1024, out_features=1024, bias=True)
              (key1): Linear(in_features=1024, out_features=1024, bias=True)
              (value1): Linear(in_features=1024, out_features=1024, bias=True)
              (dropout1): Dropout(p=0.1, inplace=False)
              (query2): Linear(in_features=768, out_features=1024, bias=True)
              (key2): Linear(in_features=768, out_features=1024, bias=True)
              (value2): Linear(in_features=768, out_features=1024, bias=True)
              (dropout2): Dropout(p=0.1, inplace=False)
            )
            (biOutput): BertBiOutput(
              (dense1): Linear(in_features=1024, out_features=1024, bias=True)
              (LayerNorm1): LayerNorm((1024,), eps=1e-12, elementwise_affine=True)
              (dropout1): Dropout(p=0.1, inplace=False)
              (q_dense1): Linear(in_features=1024, out_features=1024, bias=True)
              (q_dropout1): Dropout(p=0.1, inplace=False)
              (dense2): Linear(in_features=1024, out_features=768, bias=True)
              (LayerNorm2): LayerNorm((768,), eps=1e-12, elementwise_affine=True)
              (dropout2): Dropout(p=0.1, inplace=False)
              (q_dense2): Linear(in_features=1024, out_features=768, bias=True)
              (q_dropout2): Dropout(p=0.1, inplace=False)
            )
            (v_intermediate): BertImageIntermediate(
              (dense): Linear(in_features=1024, out_features=1024, bias=True)
            )
            (v_output): BertImageOutput(
              (dense): Linear(in_features=1024, out_features=1024, bias=True)
              (LayerNorm): LayerNorm((1024,), eps=1e-12, elementwise_affine=True)
              (dropout): Dropout(p=0.1, inplace=False)
            )
            (t_intermediate): BertIntermediate(
              (dense): Linear(in_features=768, out_features=3072, bias=True)
            )
            (t_output): BertOutput(
              (dense): Linear(in_features=3072, out_features=768, bias=True)
              (LayerNorm): LayerNorm((768,), eps=1e-12, elementwise_affine=True)
              (dropout): Dropout(p=0.1, inplace=False)
            )
          )
        )
      )
      (t_pooler): BertTextPooler(
        (dense): Linear(in_features=768, out_features=1024, bias=True)
        (activation): ReLU()
      )
      (v_pooler): BertImagePooler(
        (dense): Linear(in_features=1024, out_features=1024, bias=True)
        (activation): ReLU()
      )
    )
    (dropout): Dropout(p=0.1, inplace=False)
    (classifier): Sequential(
      (0): BertPredictionHeadTransform(
        (dense): Linear(in_features=1024, out_features=1024, bias=True)
        (LayerNorm): LayerNorm((1024,), eps=1e-12, elementwise_affine=True)
      )
      (1): Linear(in_features=1024, out_features=2, bias=True)
    )
  )
  (losses): Losses(
    (losses): ModuleList(
      (0): MMFLoss(
        (loss_criterion): CrossEntropyLoss(
          (loss_fn): CrossEntropyLoss()
        )
      )
    )
  )
)
[32m2021-06-24T01:29:13 | mmf.utils.general: [0mTotal Parameters: 247780354. Trained Parameters: 247780354
[32m2021-06-24T01:29:13 | mmf.trainers.core.training_loop: [0mStarting training...
…
